PPO_Music_RecSys/policy_network.pt (torch, 74281 bytes, 6 tensors)

fc1.weight f4 [128, 5]
0	0x3ef15c67	0.4714081
1	0xbee24025	-0.44189563
2	0x3cd51120	0.026009142
3	0x3d1f634b	0.038913053
4	0x3e63f3cc	0.2226097
5	0x3e99b25a	0.30018884
6	0xbe8092d6	-0.25112027
7	0xbed65c38	-0.41867232
8	0x3e551b0d	0.208111
9	0x3d5dcde7	0.054151442
10	0xbcd37f54	-0.02581755
11	0x3edbe4ec	0.4294809
12	0xbeb622fd	-0.3557357
13	0xbd604e6e	-0.054762296
14	0x3e949370	0.29018736
15	0x3e2c152d	0.16804953
16	0x3d2b3577	0.041799035
17	0x3e66b9c8	0.22531807
18	0x3e94892a	0.29010898
19	0x3e4508ca	0.19241634
20	0x3df1b81d	0.11802695
21	0x3e785767	0.24252091
22	0x3ea43dcd	0.320784
23	0x3e1759bd	0.14780326
24	0x3e5c975f	0.21542118
25	0xbe9a750a	-0.3016742
26	0x3dec9236	0.11551325
27	0x3eb40e74	0.35167277
28	0xbe15ff29	-0.14648117
29	0x3ed2bc85	0.41159454
30	0x3d9678fd	0.073472954
31	0x3e4a241d	0.19740339
32	0xbde5206f	-0.11187827
33	0x3e64dbb5	0.22349437
34	0x3eb54e01	0.35411075
35	0xbdecc8ed	-0.11561761
36	0x3eae945c	0.34097564
37	0xbe348acb	-0.1763107
38	0xbd0111d0	-0.031511128
39	0xbd977609	-0.0739556
40	0xbe838512	-0.25687462
41	0xbe4789c9	-0.19486155
42	0xbe288602	-0.1645737
43	0x3ec5efa5	0.38659397
44	0xbee943ba	-0.45559484
45	0xbe1c0915	-0.1523784
46	0xbe7f120e	-0.24909231
47	0xbe2a0da7	-0.1660677
48	0x3da9c28c	0.0828906
49	0x3e60c88d	0.21951504
50	0xbef0d994	-0.47041
51	0xbddf1b4e	-0.1089388
52	0x3ed426dd	0.414359
53	0x3e3d4961	0.18485023
54	0x3ef7f074	0.4842564
55	0xbdd6e51a	-0.104929164
56	0x3ebb23e7	0.3655083
57	0xbe251866	-0.16122589
58	0x3e678951	0.22610976
59	0xbe883755	-0.26604715
60	0x3e9cae50	0.3060174
61	0xbe92f9b3	-0.2870613
62	0xbda0e23a	-0.07855649
63	0x3ea27d8a	0.31736404
64	0x3e5e6aa6	0.2172037
65	0xbe5ad794	-0.21371299
66	0xbf10bd32	-0.5653869
67	0x3ef95cfd	0.48703757
68	0x3ecfc85a	0.40582544
69	0xbe770578	-0.2412318
70	0x3e37aeab	0.17937724
71	0x3e0501e2	0.12989
72	0x3ea027e7	0.31280443
73	0xbec97a0b	-0.39350924
74	0x3edf12b2	0.4356895
75	0xbef3d78b	-0.47625384
76	0x3d985cf7	0.07439607
77	0x3ee04a6a	0.43806773
78	0x3ebb7fbc	0.3662089
79	0x3e6e8402	0.23292544
80	0x3ed5a3fe	0.4172668
81	0x3ef71148	0.48255372
82	0x3e9a6223	0.30152997
83	0xbe1d268b	-0.15346734
84	0xbca15370	-0.019693106
85	0x3dbc9e71	0.09209908
86	0xbee7da99	-0.45283964
87	0x3da226bc	0.07917544
88	0x3db25707	0.087080054
89	0xbe3f400b	-0.18676774
90	0xbe1d1a5e	-0.1534209
91	0xbe1415f6	-0.14461502
92	0x3e39466d	0.18093272
93	0xbe831271	-0.25600007
94	0xbec94177	-0.39307758
95	0x3e12c4ce	0.14332888
96	0x3d45d094	0.04829462
97	0xbeb471bf	-0.3524303
98	0x3d0f572d	0.034995247
99	0x3e927595	0.28605333
100	0x3eb464a6	0.3523304
101	0x3da649b2	0.08119525
102	0x3ecb72a7	0.3973591
103	0xbd8c6394	-0.068549305
104	0xbea9bd0c	-0.33152044
105	0x3de56b89	0.11202151
106	0x3ed5f37c	0.41787326
107	0xbd3aee98	-0.045637697
108	0xbe90abe9	-0.28256157
109	0x3e78389a	0.24240342
110	0xbe1d019f	-0.1533265
111	0xbe09e48d	-0.13466091
112	0xbe9babb8	-0.30404449
113	0xbdfa9a40	-0.12236452
114	0xbdbedb60	-0.09319186
115	0x3f005c80	0.50141144
116	0x3e89cf90	0.2691617
117	0x3eaac2af	0.33351657
118	0x3eb5be5c	0.35496795
119	0xbebbab79	-0.3665426
120	0x3e85ec02	0.26156622
121	0xbe3f1cf5	-0.1866339
122	0x3d1e3b0a	0.038630523
123	0x3ea17c3f	0.31540105
124	0x3e1fd10a	0.15607086
125	0x3d8d4675	0.06898204
126	0x3d8a23dc	0.06745121
127	0x3df78d9c	0.12087557
128	0x3e131a16	0.1436542
129	0x3e2e282d	0.17007513
130	0x3b92812b	0.0044709644
131	0x3eadb600	0.33927917
132	0x3ec44f66	0.38341826
133	0xbe531479	-0.20613278
134	0xbeb61043	-0.35559282
135	0xbe43f37e	-0.19135854
136	0x3e500bfd	0.20317073
137	0x3eab4bbf	0.33456227
138	0xbeaf6713	-0.34258327
139	0x3e6aa977	0.22916208
140	0xbf027438	-0.50958586
141	0xbe3c810d	-0.18408604
142	0x3ea63152	0.32459503
143	0x3c1596e7	0.009130216
144	0xbe9d36a6	-0.30705756
145	0xbe80d8bc	-0.25165355
146	0x3e7f8190	0.24951768
147	0xbe805dbe	-0.2507152
148	0xbeda0fd6	-0.42590207
149	0xbe6cc614	-0.23122436
150	0xbd3922d5	-0.045199234
151	0xbe5ea114	-0.21741134
152	0xbde2cc99	-0.1107418
153	0xbeca923d	-0.39564696
154	0x3ef1ffaf	0.47265384
155	0x3d44be58	0.04803309
156	0xbe99cc92	-0.30038887
157	0x3e89e2d2	0.26930863
158	0xbe38ad3b	-0.18034832
159	0xbedbf62a	-0.42961246
160	0x3edff3cd	0.43740693
161	0xbe943074	-0.28943217
162	0x3e2d045c	0.16896194
163	0x3d1984f8	0.037480325
164	0xbeb7db3a	-0.35909444
165	0xbe746933	-0.23868255
166	0x3d559ed3	0.05215342
167	0x3ed01607	0.40641806
168	0x3eb3caa4	0.3511554
169	0xbe243a91	-0.16037966
170	0xbee4d5bc	-0.44694316
171	0x3e88b0dd	0.26697436
172	0x3e1cdae3	0.15317874
173	0x3de7a001	0.11309815
174	0xbeab85dc	-0.33500564
175	0xbe9b62ff	-0.30348966
176	0xbde3bb65	-0.11119727
177	0x3dff20cc	0.124574274
178	0x3e639d3d	0.2222795
179	0xbe807620	-0.25090122
180	0x3e9a0a5e	0.30086035
181	0x3db1ac9e	0.08675502
182	0xbd0adfc3	-0.033904802
183	0xbebebc18	-0.3725288
184	0x3e9d7934	0.30756533
185	0x3eb0d671	0.34538606
186	0xbeed26b5	-0.46318594
187	0x3ebc6d83	0.368023
188	0xbcca4053	-0.024688875
189	0xbd9055a2	-0.07047583
190	0xbed6f9b3	-0.4198738
191	0x3e0bd6b8	0.13656127
192	0x3e62a509	0.22133268
193	0x3e6bff78	0.23046672
194	0x3e0eb5d4	0.1393655
195	0xbe8caca7	-0.27475473
196	0xbeb70abc	-0.35750377
197	0xbea51cb0	-0.3224845
198	0x3e32676b	0.17422263
199	0x3e6cdb7f	0.23130606
200	0x3ee3b8bd	0.44476882
201	0xbd4bedc8	-0.049787313
202	0x3eaf2fb1	0.34216073
203	0xbced5427	-0.028970791
204	0xbc615177	-0.013752333
205	0x3e79dca3	0.24400572
206	0xbe2bfb8b	-0.16795175
207	0xbea35aa9	-0.31905106
208	0x3dc62ec1	0.09676886
209	0x3ee52fdf	0.44763085
210	0x3edb8005	0.4287111
211	0xbea65e91	-0.32494023
212	0x3d1c7242	0.038194902
213	0x3a1e3479	0.0006035041
214	0xbc6fa44e	-0.014626576
215	0xbe2ff40a	-0.17182937
216	0xbdca0fe1	-0.0986631
217	0xbe0b79f2	-0.13620737
218	0x3e363c28	0.17796385
219	0xbea1c721	-0.31597236
220	0xbf001d88	-0.5004506
221	0x3edcd62d	0.43132153
222	0xbedede5c	-0.43529022
223	0xbea51891	-0.32245305
224	0x3d3248cc	0.043526456
225	0x3ed0487d	0.40680304
226	0x3e3b7a63	0.18308406
227	0xbe1784f5	-0.14796813
228	0x3eccc017	0.39990303
229	0x3d82d07e	0.06387423
230	0xbde2d973	-0.110766314
231	0xbe9445ee	-0.28959602
232	0xbe340d2a	-0.17583147
233	0x3d624dbb	0.05524991
234	0xbee573ca	-0.44814903
235	0xbeebf2fe	-0.46083826
236	0x3cec708a	0.028862257
237	0x3e70025f	0.23438405
238	0x3e901810	0.28143358
239	0x3f00be17	0.50290054
240	0xbec22e15	-0.37925783
241	0x3f01b391	0.5066462
242	0x3e887d39	0.26658037
243	0xbee15482	-0.44009787
244	0xbe1078b1	-0.1410854
245	0x3e17f552	0.14839676
246	0x3e89993b	0.26874718
247	0xbd9942c9	-0.074834414
248	0x3ea9d03c	0.33166683
249	0x3e20a9ad	0.15689726
250	0x3de46b25	0.11153249
251	0xbe832861	-0.25616744
252	0x3ecb519c	0.397107
253	0xbe0c6cae	-0.13713333
254	0x3ea1a531	0.31571344
255	0x3ebd866f	0.37016627

fc1.bias f4 [128]
0	0x3e402753	0.18765001
1	0xbecd8f3a	-0.40148336
2	0x3e99ec34	0.3006302
3	0x3ecff701	0.40618137
4	0xbda1ec03	-0.07906344
5	0xbeadd693	-0.3395277
6	0xbda25c3a	-0.07927747
7	0x3ee1dbed	0.44113103
8	0x3ec1fec4	0.37889683
9	0x3e1ec479	0.15504636
10	0xbe9cab70	-0.30599546
11	0xbe0ef5ea	-0.13960996
12	0x3e6e5c78	0.23277462
13	0xbe9acec7	-0.30235884
14	0x3e44eb8c	0.19230479
15	0x3e4d188e	0.20028898
16	0x3eed2a3b	0.46321282
17	0x3eaaa0ab	0.33325705
18	0x3eb3bb5f	0.3510389
19	0x3e5ee1b2	0.21765783
20	0x3ec712a7	0.38881418
21	0x3de4e9be	0.11177395
22	0x3dda539c	0.106604785
23	0xbdaf66ca	-0.08564527
24	0xbed49625	-0.415208
25	0xbe59dc6d	-0.21275492
26	0x3ec58feb	0.38586363
27	0xbeb90dd4	-0.36143363
28	0x3ed3dcd6	0.41379422
29	0xbde3fb79	-0.11131949
30	0xbecc9bda	-0.39962655
31	0xbe05cafd	-0.13065715
32	0x3d94004d	0.0722662
33	0xbe873791	-0.2640958
34	0xbe0a3a85	-0.13498886
35	0x3ea269c9	0.31721333
36	0xbdb6f517	-0.08933466
37	0x3e1cab5f	0.15299748
38	0xbd945172	-0.07242097
39	0x3e44dcdd	0.19224878
40	0x3df0f1cc	0.11764869
41	0xbd05fc9a	-0.032711603
42	0x3d562957	0.05228552
43	0xbde36445	-0.11103109
44	0x3e249b3c	0.16074842
45	0xbe0c735e	-0.13715884
46	0x3ec8ceed	0.39220372
47	0xbe9614ef	-0.29312846
48	0xbe19a025	-0.15002497
49	0x3d1f09a7	0.038827565
50	0xbd00bdcf	-0.031431016
51	0xbec91a34	-0.39277804
52	0x3d8d0752	0.06886162
53	0xbea6848f	-0.3252301
54	0x3eb42857	0.35187027
55	0x3dec0e72	0.11526193
56	0x3e909ae4	0.28243172
57	0xbe45fc72	-0.19334581
58	0x3ed6e7e1	0.41973785
59	0x3edc9aed	0.4308695
60	0x3ed3f8ae	0.41400665
61	0xbe609db6	-0.21935162
62	0xbe10b15e	-0.1413016
63	0x3e49f2ba	0.19721499
64	0xbec8affd	-0.39196768
65	0x3e452f66	0.19256362
66	0x3da0ab7c	0.07845208
67	0xbdf9bb7e	-0.121939644
68	0x3e95d908	0.29267144
69	0x3ebf884e	0.3740868
70	0x3dcc22ec	0.09967598
71	0xbeabc069	-0.33545235
72	0x3e94b704	0.2904588
73	0x3ec9b73a	0.39397603
74	0x3e3cebe9	0.18449368
75	0xbdb3c4d9	-0.0877778
76	0x3ea67ce1	0.3251715
77	0x3e242a4d	0.16031761
78	0x3e9183f2	0.2842098
79	0x3cab8038	0.020935163
80	0x3dcd08da	0.10011454
81	0x3e90160b	0.28141817
82	0x3ee19cca	0.44064933
83	0xbe5600ca	-0.20898739
84	0xbe5dbeac	-0.21654767
85	0xbe8c9ccc	-0.27463377
86	0x3ec80014	0.3906256
87	0x3e3d4209	0.18482222
88	0x3f033efd	0.5126799
89	0xbe11543c	-0.14192289
90	0x3d38a9f0	0.04508394
91	0xbed98546	-0.42484492
92	0x3ec7827a	0.38966733
93	0xbe9a5df2	-0.301498
94	0x3e593cd9	0.21214618
95	0xbe5bf4ed	-0.2148015
96	0xbea6f780	-0.32610703
97	0xbe83c0f8	-0.2573316
98	0xbe4c191c	-0.19931453
99	0xbdd0deff	-0.10198783
100	0x3e605b0e	0.21909735
101	0x3e9b2870	0.3030429
102	0x3ea0fa23	0.3144084
103	0x3eb29ef4	0.34886897
104	0xbe9e3fba	-0.30907995
105	0xbdeb860f	-0.11500179
106	0xbd98c359	-0.074591346
107	0x3ef6e190	0.48218966
108	0xbe254009	-0.16137709
109	0x3d25342b	0.040332954
110	0x3e305101	0.172184
111	0xbe437fe3	-0.19091754
112	0xbe2fa63a	-0.17153254
113	0xbdcb7004	-0.09933475
114	0x3de571b0	0.11203325
115	0xbdf9d911	-0.12199605
116	0x3ead3712	0.33831078
117	0xbeb59d29	-0.35471466
118	0x3eeaed76	0.45884293
119	0x3eae592e	0.34052414
120	0x3ecb9a42	0.39766127
121	0xbea83ed6	-0.3286044
122	0x3e94b429	0.290437
123	0xbeb7e23a	-0.35914785
124	0xbd4089d4	-0.047006443
125	0xbe9278d9	-0.28607824
126	0x3ebf766d	0.3739504
127	0x3eb2f092	0.34949166

fc2.weight f4 [128, 128]
0	0xbd662fd1	-0.056197945
1	0x3c1d8a84	0.009615544
2	0x3d1397bb	0.036033373
3	0x3d9aaefe	0.07552908
4	0xbd832236	-0.064030096
5	0xbaa6cebd	-0.0012726408
6	0xbd23ce24	-0.039991513
7	0x3de2d4fd	0.110757805
8	0x3d42a730	0.047522724
9	0xbcc29b9f	-0.023755847
10	0xbc50473d	-0.012712297
11	0xbd43398c	-0.047662303
12	0xbc5082fc	-0.012726542
13	0xbd179764	-0.03700961
14	0x3d2f93c4	0.04286553
15	0xbd1f2c63	-0.03886069
16	0x3dfdff28	0.12402183
17	0xbde98fb6	-0.11404364
18	0x3c9ac109	0.018890874
19	0x3c8c6950	0.01714006
20	0x3d3c7bd0	0.046016514
21	0x3dc78ef7	0.09744065
22	0xbd723a87	-0.059137847
23	0x3c74a188	0.01493109
24	0x3ccede83	0.025252586
25	0x3d9b9718	0.07597178
26	0x3d6a6a68	0.057230383
27	0x3e3b3760	0.18282843
28	0x3db8bcf8	0.09020418
29	0xbc963914	-0.018337764
30	0x3c87b552	0.016565952
31	0xbe22c500	-0.15895462
32	0xbd20b605	-0.039236087
33	0xbd45225c	-0.04812847
34	0x3da320af	0.07965218
35	0xbd9b7447	-0.075905375
36	0xbd258e21	-0.040418748
37	0xbacb4596	-0.0015508409
38	0x3c3aaa77	0.011393181
39	0x3c56dd7c	0.013114329
40	0x3c58e810	0.013238922
41	0xbc2422bb	-0.010018046
42	0xbd691a4f	-0.056909855
43	0xbdde7580	-0.10862255
44	0x3dd2432a	0.10266717
45	0xbda596f9	-0.080854364
46	0xbd10afb0	-0.0353238
47	0x3d5854ea	0.052815355
48	0x3e1b03b7	0.15138136
49	0x3d90d821	0.07072473
50	0x3d5b5d0b	0.05355553
51	0xbc8b6595	-0.017016212
52	0x3c4b1fb7	0.012397698
53	0xbd2d7704	-0.04234983
54	0xbd236877	-0.039894547
55	0xbcdc3866	-0.026882362
56	0xbda20675	-0.07911388
57	0xbda710ff	-0.081575386
58	0xbd0795ac	-0.033101723
59	0xbc5a8a8f	-0.013338699
60	0xbb9111af	-0.004427157
61	0x3d8867f0	0.066604495
62	0xbc5edd28	-0.013602532
63	0x3c378d13	0.011203068
64	0x3ce7d3ee	0.028299298
65	0x3d400602	0.04688073
66	0xbdab6fcb	-0.08370932
67	0x3d058aaa	0.032602943
68	0xbdab82e4	-0.08374575
69	0x3d78715b	0.06065498
70	0xbd14b7ef	-0.036308225
71	0xbd0de432	-0.034641452
72	0x3d2c71a0	0.04210055
73	0x3de3bbe2	0.1111982
74	0xbc2dbb4f	-0.01060374
75	0xbd9cc23f	-0.07654237
76	0x3d0cbbbc	0.034358725
77	0x3decbba2	0.115592256
78	0xbd2affd3	-0.04174788
79	0xbd9f5972	-0.07780732
80	0xbcdcfbd9	-0.02697556
81	0x3c103080	0.008800626
82	0x3d87b9fa	0.06627269
83	0x3d9752d1	0.07388843
84	0x3dc0506a	0.09390338
85	0xbd652427	-0.05594268
86	0x3d966a7a	0.073445275
87	0xbc979425	-0.018503258
88	0x3dc65d38	0.09685749
89	0xbca83c96	-0.020536702
90	0x3dc6d756	0.09709041
91	0xbbcd8697	-0.006272148
92	0x3d6f43be	0.058414213
93	0xbdbdd6d9	-0.092694946
94	0x3cb0c933	0.021580314
95	0xbc9e7cd0	-0.019346625
96	0xbdd33c2d	-0.10314212
97	0x3d0d7c3a	0.0345423
98	0x3e2db74c	0.16964453
99	0x3c28cc85	0.0103026675
100	0xbb01a0e5	-0.0019779739
101	0x3d3a6147	0.045502927
102	0x3b5c8dcb	0.003365385
103	0x3cda2898	0.026630685
104	0x3ca1ddf0	0.019759148
105	0x3d0caa67	0.034342196
106	0x3d2ed5f6	0.042684518
107	0x3c6cdc37	0.0144568
108	0x3b15fa6f	0.0022884866
109	0x3dd7371f	0.105085604
110	0x3ddcc448	0.10779625
111	0x3db8bdc4	0.0902057
112	0x3d4e1e53	0.05032189
113	0xbced0b31	-0.028936
114	0x3cd0d433	0.02549181
115	0x3cd9d352	0.026590023
116	0xbdd26db9	-0.10274834
117	0xbd82021b	-0.06348058
118	0x3dc84fd7	0.09780853
119	0x3bb2087d	0.005433141
120	0x3dad7ad1	0.08470691
121	0xbd08f93a	-0.033440806
122	0xbd64ac98	-0.05582866
123	0xbddba75b	-0.1072528
124	0xbbb3c57e	-0.0054861894
125	0xbded8a98	-0.115987
126	0x3d9bc218	0.0760538
127	0x3c568fda	0.01309582
128	0xbdde28c6	-0.10847621
129	0xbd231c57	-0.03982195
130	0x3d7af9d3	0.061273407
131	0xbcad3961	-0.021145524
132	0x3d4e3c5e	0.05035054
133	0xbdbaa5bd	-0.09113643
134	0x3ced665c	0.028979473
135	0x3d172c28	0.036907345
136	0x3d4b290f	0.049599703
137	0x3da66d0c	0.08126268
138	0x3e07bad8	0.13254869
139	0x3dac69a5	0.084185876
140	0xbce24d02	-0.02762461
141	0xbdd3d7e7	-0.103439145
142	0xb96893d8	-0.0002218032
143	0x3de5267e	0.111889824
144	0xbd831472	-0.06400384
145	0x3d83a9aa	0.06428845
146	0x3dbb2121	0.09137178
147	0xbcc68cd8	-0.024237081
148	0xbc646089	-0.013939031
149	0x3ce68010	0.028137237
150	0x3df7729f	0.12082409
151	0xbd5ab3af	-0.053394016
152	0xbd852fc4	-0.06503251
153	0xbacdb828	-0.0015695142
154	0xbd02c75f	-0.031928416
155	0xbdf82e4f	-0.12118208
156	0x3de2a867	0.110672764
157	0x3d54dd9b	0.051969152
158	0x3d9b142d	0.075722076
159	0xbe02dd74	-0.1277979
160	0xbc86665b	-0.016406229
161	0x3d165e08	0.03671077
162	0x3df318b2	0.11869945
163	0x3db8c9e5	0.09022883
164	0x3d751902	0.059838302
165	0xbd7239e9	-0.05913726
166	0x3d5e3520	0.054249883
167	0x3ca2bcb1	0.019865366
168	0xbdb044fb	-0.08606907
169	0x3cd2e445	0.025743613
170	0xbce48d65	-0.027899453
171	0xbd12c74f	-0.035834607
172	0x3d7acffa	0.0612335
173	0x3d719eaf	0.058989223
174	0xbc6b98c6	-0.014379686
175	0x3c9c9c6d	0.019117558
176	0xbde383cd	-0.111091234
177	0x3d504b44	0.05085303
178	0x3d317d15	0.04333218
179	0x3db45200	0.08804703
180	0x3dbe29ac	0.09285292
181	0xbbe2ebc1	-0.0069250767
182	0xbcc0de8a	-0.023543615
183	0x3b3fae3e	0.0029248144
184	0x3d5126d4	0.05106242
185	0xbd48b257	-0.048998203
186	0x3d382129	0.0449535
187	0xbda3f25f	-0.08005213
188	0x3ccbc61e	0.024874743
189	0x3d165758	0.03670439
190	0x3dab236f	0.08356368
191	0x3d63c4c0	0.055607557
192	0x3bd9e9c5	0.006650182
193	0x3d58ac56	0.052898727
194	0x3e09cce1	0.13457061
195	0xbd527a5b	-0.05138622
196	0x3c7d6229	0.015465298
197	0xbcb5c1cd	-0.022187138
198	0x3e04961e	0.1294789
199	0xbab9be25	-0.0014171047
200	0x3d9a2682	0.07526876
201	0xbd35984b	-0.04433469
202	0xbd13ce58	-0.036085457
203	0x3e1114bc	0.14168066
204	0x3cf49d30	0.02986011
205	0x3cd40c8d	0.02588489
206	0xbd48c68c	-0.049017474
207	0xbbc31ce4	-0.0059543718
208	0xbdf5e08a	-0.12005718
209	0x3d20bf29	0.039244805
210	0x3dbad87c	0.09123322
211	0xbd601010	-0.05470282
212	0xbdc433b4	-0.09580174
213	0x3cb65e5c	0.02226179
214	0x3d69e683	0.0571046
215	0x3d977abf	0.07396459
216	0xbcc030f1	-0.023460837
217	0xbc5663e8	-0.013085343
218	0xbc17caff	-0.009264707
219	0xbcc167a2	-0.023608986
220	0x3d0f77a5	0.03502621
221	0x3bb888c4	0.005631538
222	0xbd5773ba	-0.0526006
223	0xbcddfcff	-0.027098177
224	0x3d84856a	0.06470759
225	0x3ccb7e5e	0.02484053
226	0xbdb85efc	-0.09002492
227	0x3dac1c8f	0.084038846
228	0xbcf83391	-0.030298026
229	0x3d0078fd	0.031365383
230	0xbd70eca8	-0.058819443
231	0x3c9f5ea3	0.019454306
232	0xbd8f2c4d	-0.069908716
233	0x3d59e737	0.05319902
234	0xbd0be90d	-0.0341578
235	0x3c9c7658	0.0190994
236	0x3da071ac	0.07834181
237	0xbc88b90c	-0.0166898
238	0xbd8b8004	-0.068115264
239	0x3ce4e6a2	0.027942006
240	0x3dac2081	0.08404637
241	0x3dabbf60	0.08386111
242	0xbd55b272	-0.05217213
243	0x3d29154c	0.041280076
244	0x3c0a37ec	0.008436184
245	0x3e046719	0.12929954
246	0xbd135a9c	-0.035975084
247	0xbc16581b	-0.009176279
248	0xbdadf3c2	-0.08493759
249	0xbd05a4e9	-0.032627974
250	0x3e1911c4	0.14948183
251	0xbd485454	-0.048908547
252	0x3cb88990	0.022526532
253	0x3dd24233	0.10266533
254	0xbc92626a	-0.017869193
255	0x3d870743	0.06593182

fc2.bias f4 [128]
0	0xba964920	-0.0011465885
1	0x3d27ba43	0.040949117
2	0xbc44270c	-0.0119722
3	0xba945795	-0.0011317605
4	0x3d2dd51a	0.042439558
5	0xbcd43f71	-0.025909157
6	0x3ceedac6	0.029157054
7	0xbcf89e10	-0.030348808
8	0xbd4f4acb	-0.050608438
9	0xbb988fb2	-0.0046558017
10	0xbd6eba09	-0.058282886
11	0x3db2f3d7	0.08737915
12	0x3c53bb54	0.0129230805
13	0xbdec6a8c	-0.1154376
14	0xbd9ece4b	-0.07754191
15	0x3da70945	0.08156065
16	0x3d4e72b2	0.05040235
17	0x3c833436	0.016016107
18	0x3d75dcc0	0.060024977
19	0xbd65c96b	-0.05610029
20	0xbccad05f	-0.024757562
21	0x3dcb1eb2	0.09917964
22	0xbcef0964	-0.029179282
23	0x3c577504	0.013150457
24	0x3d87c607	0.066295676
25	0x3dbc2be2	0.091880575
26	0x3d5d529f	0.05403387
27	0x3d8aa2ad	0.06769309
28	0xbd40a157	-0.047028866
29	0xbd8e9c55	-0.06963412
30	0xbcf79abf	-0.030225156
31	0x3d2c3268	0.04204026
32	0x3d62142d	0.055195022
33	0x3dc57415	0.096412815
34	0x3d3837fc	0.044975266
35	0x3d488c4f	0.048961934
36	0x3c888972	0.016667102
37	0xbcd03af8	-0.025418743
38	0x3d8dbede	0.06921171
39	0x3d980d43	0.074244045
40	0x3d81ebb3	0.06343784
41	0x3cbaae4b	0.022788187
42	0x3bf65c24	0.0075183082
43	0x3c6590ee	0.014011605
44	0x3cdd2e44	0.0269996
45	0xbcc9f802	-0.024654392
46	0x3cbf4170	0.023346633
47	0x3d8d18d3	0.068895005
48	0x3dfb927d	0.122838
49	0xbcd3eede	-0.025870737
50	0x3d8df3e3	0.06931283
51	0xbd9f9db7	-0.077937536
52	0x3cc45b34	0.02396927
53	0xbd637b99	-0.055537794
54	0xbd0b11ba	-0.033952452
55	0x3d86167e	0.06547259
56	0xbdb1a1d0	-0.086734414
57	0x3d8aed74	0.06783572
58	0xbd1396aa	-0.036032356
59	0xbd91ae3c	-0.07113311
60	0x3d780a59	0.060556743
61	0xbc465ff4	-0.012107838
62	0xbdb759ba	-0.08952661
63	0x3c1a320e	0.009411348
64	0x3ba3d60c	0.0049998816
65	0xbcab24aa	-0.020891506
66	0x3c6bc843	0.014391008
67	0x3d1ede57	0.03878626
68	0xba9e970f	-0.0012099462
69	0x3d8790a4	0.06619385
70	0x3dbdd532	0.092691794
71	0x3b9a773e	0.004713922
72	0xbd2e84fd	-0.042607296
73	0xbd4bece9	-0.049786482
74	0xbd1ac27b	-0.037783127
75	0xbc895e9f	-0.016768752
76	0xbd622d2c	-0.05521886
77	0xbdb0569d	-0.0861027
78	0xbd48b599	-0.04900131
79	0xbc586504	-0.013207678
80	0xbcb6afc4	-0.022300608
81	0xbd7aec04	-0.06126024
82	0x3d7de657	0.061987247
83	0xbd53a130	-0.051667392
84	0xbc26a37f	-0.010170816
85	0x3d402e93	0.046919417
86	0xbc02abbf	-0.007975518
87	0xbd23df18	-0.04000768
88	0xbce2b865	-0.027675817
89	0xbc06289f	-0.008188396
90	0x3d6450ff	0.055741306
91	0xbccffe10	-0.025389701
92	0x3ce494c6	0.027902972
93	0xbd39e9ac	-0.045388862
94	0x3d545bea	0.05184547
95	0x3c406f56	0.011745295
96	0xbc5cd99e	-0.013479618
97	0x3d7207e9	0.059089575
98	0xbcfe3f93	-0.031036174
99	0x3de9d346	0.1141725
100	0x3b9af06f	0.004728369
101	0xbdd82bd8	-0.105552375
102	0xbb800e77	-0.0039079743
103	0xbcf1fd38	-0.02953969
104	0x3dbdd923	0.09269931
105	0xbc6a4fef	-0.014301284
106	0xbd7e3fd8	-0.062072605
107	0xbc986570	-0.018603057
108	0x3dbc34f6	0.09189789
109	0x3d39e2b8	0.04538223
110	0xbc2714e7	-0.010197855
111	0xbda59c27	-0.08086424
112	0xbdc47e7b	-0.09594437
113	0x3d22c05c	0.03973423
114	0x3d3e3320	0.046435475
115	0xbdac5814	-0.08415237
116	0xbdc5c655	-0.096569695
117	0x3d3f6fd5	0.04673751
118	0xbd4d299f	-0.05008852
119	0xbd224c06	-0.039623283
120	0xbcd404af	-0.02588114
121	0x3d0389e6	0.032113932
122	0x3d404fcc	0.0469511
123	0x3ca234ca	0.019800562
124	0xbd13a4b9	-0.036045764
125	0x3d52cc4b	0.05146436
126	0xbd483780	-0.048881054
127	0xbd5b7c76	-0.053585492

fc3.weight f4 [4, 128]
0	0x3c429d59	0.011878335
1	0x3e252ac7	0.161296
2	0x3ce2d270	0.027688235
3	0x3d664cee	0.05622571
4	0x3e02971e	0.12752959
5	0xbdd4310f	-0.1036092
6	0xbd8ad22e	-0.0677837
7	0x3d6da332	0.058016963
8	0xbcac0cc4	-0.02100218
9	0x3db56ce2	0.088586584
10	0xbdf87b5f	-0.12132906
11	0x3ca3c5d3	0.01999179
12	0x3d993b16	0.07481973
13	0x3dd713f8	0.105018556
14	0xbdad426d	-0.08459935
15	0x3bbf1161	0.005830929
16	0xbcaba1ff	-0.02095127
17	0xbd00792a	-0.03136555
18	0x3d48b0dc	0.04899679
19	0xbe11433c	-0.14185804
20	0x3dc3012d	0.09521709
21	0x3d24d8b0	0.04024571
22	0xbde0ed47	-0.10982757
23	0xbd8bd088	-0.068268836
24	0x3da82583	0.0821028
25	0xbbe009bd	-0.0068370984
26	0xbc32ba6c	-0.010908704
27	0xba0f1685	-0.0005458373
28	0xbda4e2c3	-0.08051064
29	0xbdb3f0e7	-0.08786183
30	0xbc17cf36	-0.0092657115
31	0x3cc86666	0.02446289
32	0xbdca56ac	-0.098798126
33	0x3dd583a9	0.10425503
34	0x3bde8a2a	0.006791373
35	0x3dbbb3ac	0.09165129
36	0xbd4b24fd	-0.04959582
37	0xbce528ad	-0.027973497
38	0x3cc332b7	0.023827894
39	0xbe09dfc8	-0.13464272
40	0xbd8c931a	-0.06863995
41	0x3df3cd59	0.11904401
42	0xbd908ece	-0.07058488
43	0xbdb079f3	-0.0861701
44	0x3d0b709a	0.034042932
45	0x3d997a03	0.07493975
46	0x3d948f75	0.07253925
47	0x3da8fbaa	0.08251126
48	0xbe1bf120	-0.152287
49	0xbd43169b	-0.04762898
50	0xbdc96a2f	-0.09834706
51	0x3e05b97a	0.13059035
52	0x3d39aa2e	0.04532831
53	0xbb47e99e	-0.0030504237
54	0xbd0da74a	-0.034583367
55	0x3cf08fed	0.029365504
56	0x3c95dbc4	0.018293269
57	0x3d9ea65c	0.07746574
58	0x3db0c763	0.0863178
59	0xbdbad326	-0.091223046
60	0xbd863021	-0.065521486
61	0xbdfafb06	-0.1225491
62	0xbb0ed1de	-0.002179257
63	0x3c05dcfe	0.008170364
64	0xbdc6d343	-0.09708264
65	0x3e520097	0.20508038
66	0xbcb7521c	-0.02237802
67	0xbe01cc90	-0.1267569
68	0x3d7be5a1	0.061498288
69	0xbe0df133	-0.13861541
70	0x3db16a2b	0.08662828
71	0xbdd2d987	-0.10295396
72	0xbd510411	-0.05102927
73	0xbca8833c	-0.02057039
74	0x3e375ae0	0.1790576
75	0xbc34044c	-0.010987353
76	0xbe20e6e4	-0.15713078
77	0x3c9074cd	0.01763382
78	0xbddc117f	-0.107455246
79	0x3df39815	0.11894242
80	0xbde7c29d	-0.113164164
81	0x3dcf1347	0.10111099
82	0xbdc70671	-0.097180255
83	0x3dc72771	0.0972432
84	0xbdcdf690	-0.10056794
85	0x3c2ca7af	0.010538026
86	0x3e37d3b8	0.17951858
87	0x3deffcfb	0.11718174
88	0x3d94ca25	0.072651185
89	0x3dbe2f00	0.09286308
90	0x3e134bce	0.14384386
91	0xbd40d428	-0.047077328
92	0x3d070014	0.03295906
93	0x3df81f04	0.12115291
94	0x3c808e89	0.015692966
95	0x3e318220	0.17334795
96	0x3e00ebb7	0.12589918
97	0x3de1ef9e	0.110320315
98	0xbdddd9c9	-0.10832555
99	0x3dceaf7d	0.100920655
100	0xbd754f7b	-0.05989025
101	0xbdd891c8	-0.105746806
102	0xbd9bdf74	-0.0761098
103	0xbd81893c	-0.063250035
104	0xbdff92bf	-0.124791615
105	0x3dcf1622	0.101116434
106	0x3a8e7e40	0.0010871366
107	0xbd8231c3	-0.063571475
108	0x3c9625a7	0.0183285
109	0x3dc16603	0.09443285
110	0x3dc8aa3d	0.097980954
111	0x3e03c6d3	0.12868814
112	0xba598d19	-0.0008298918
113	0x3d971bbf	0.07378339
114	0xbc191d24	-0.009345327
115	0xbc8ef055	-0.017448584
116	0x3da0016d	0.07812772
117	0x3dacb9be	0.08433865
118	0xbe13fea6	-0.1445261
119	0x3d8d9768	0.06913644
120	0xbd359105	-0.044327755
121	0xbcf210ed	-0.029549086
122	0xbcae6d3d	-0.021292323
123	0x3dad316a	0.084566906
124	0x3da6cfc4	0.08145097
125	0xbd13decd	-0.03610115
126	0xbdb22699	-0.08698768
127	0x3dfced73	0.12349977
128	0xbdd2145e	-0.10257791
129	0xbdf8ec0b	-0.121543966
130	0xbd5c8204	-0.05383493
131	0x3d6749dc	0.056466922
132	0x3d3a6a63	0.045511615
133	0xbdf09f3e	-0.11749123
134	0x3d4b2b00	0.049601555
135	0x3dbf8dd0	0.093532205
136	0x3de992fd	0.11404989
137	0xbe08ff57	-0.13378654
138	0xbcd8c41b	-0.026460698
139	0xbd2a45e5	-0.041570563
140	0x3da9513b	0.082674466
141	0x3d943b02	0.07237817
142	0x3b98238a	0.0046429085
143	0xbb402cce	-0.002932358
144	0xbda71b9f	-0.08159565
145	0xbd283465	-0.041065592
146	0xbd6053bd	-0.05476736
147	0xbdf1f76e	-0.118147716
148	0xbdc61258	-0.096714675
149	0x3d302bc6	0.043010496
150	0xbe0018ba	-0.12509432
151	0x3d64a385	0.055820007
152	0x3da87302	0.08225061
153	0x3c679feb	0.0141372485
154	0x3d6e2a8d	0.05814605
155	0xbc0d5be0	-0.008627862
156	0xbdb9c3e3	-0.090705656
157	0x3dc479ad	0.0959352
158	0xbd96fa67	-0.07371979
159	0xbc89240d	-0.016740823
160	0xbd4caefe	-0.049971573
161	0xbdef3d26	-0.11681585
162	0xbc854bab	-0.016271433
163	0x3d8b3ab8	0.06798309
164	0x3d9ca5f2	0.07648839
165	0x3e027c02	0.12742618
166	0xbcc4657c	-0.023974173
167	0xbd290052	-0.04126007
168	0x3dd27f72	0.102782145
169	0x3b5ccf1b	0.003369278
170	0x3d06682d	0.032814194
171	0xbd92c461	-0.071663626
172	0xbdb339ca	-0.08751257
173	0xbdee7855	-0.11644045
174	0xbd97f276	-0.07419293
175	0x3dbe8705	0.09303097
176	0xbd449db0	-0.048001945
177	0xbe1f9dd5	-0.15587552
178	0xbd3a083d	-0.045418013
179	0x3b8fed79	0.0043923226
180	0x3d48cfac	0.049026176
181	0xbd277fd4	-0.04089339
182	0xbe0b870d	-0.13625737
183	0xbdad2c2f	-0.08455693
184	0xbca62de1	-0.020285549
185	0xbce6be16	-0.028166812
186	0xbd39e6af	-0.045386013
187	0xbd3d4405	-0.046207447
188	0xbddf4a83	-0.10902884
189	0xbbdcac91	-0.0067344387
190	0xbd3882d1	-0.04504663
191	0x3d47ccb5	0.04877921
192	0xbc867cf6	-0.016417008
193	0xbd7a7202	-0.061143883
194	0x3dc84347	0.09778457
195	0xbdb41f94	-0.087950855
196	0x3cd6cd14	0.026220836
197	0x3cf77ca4	0.0302108
198	0xbd8766fe	-0.06611441
199	0x3d365957	0.044518795
200	0x3db6964a	0.08915384
201	0x3d9cc254	0.07654253
202	0xbdf991dd	-0.12186024
203	0x3c1be4e5	0.009515022
204	0x3d1073f8	0.035266846
205	0x3ba87217	0.0051405537
206	0xbdf93ec4	-0.12170175
207	0xbe00220d	-0.1251299
208	0x3db5074a	0.08839281
209	0x3dd80379	0.10547537
210	0x3d34670a	0.04404358
211	0xbd428a17	-0.047494974
212	0x3d7e204f	0.06204253
213	0x3d94a49c	0.07257959
214	0x3bc61930	0.006045483
215	0x3db23536	0.087015554
216	0x3d606f22	0.054793485
217	0xbd4f6e24	-0.050642148
218	0x3d302527	0.04300418
219	0xbe206bd4	-0.15666133
220	0x3d9ff12e	0.07809673
221	0x3d30f4c0	0.04320216
222	0xbd10a8f9	-0.035317395
223	0xbdfcedee	-0.12350069
224	0xbe30bc6c	-0.17259377
225	0xbb933e6e	-0.004493526
226	0x3d32ba86	0.043634914
227	0xbd26a315	-0.04068287
228	0x3ceed0cb	0.029152295
229	0x3de2c1de	0.110721335
230	0x3ba5329f	0.005041435
231	0x3dc14107	0.09436231
232	0xbda38199	-0.07983703
233	0xbd12f61f	-0.03587925
234	0xbdb363ed	-0.08759294
235	0x3da8deee	0.082456455
236	0xbdd95498	-0.10611838
237	0x3dad5835	0.0846409
238	0xbd51ded2	-0.05123789
239	0xbdb06ddf	-0.08614706
240	0x3dad24de	0.084542975
241	0x3d7a4849	0.061104093
242	0xbd042944	-0.032265916
243	0x3d1ad7c6	0.037803434
244	0xbd07fdbd	-0.033200968
245	0xbd68192e	-0.05666464
246	0xbbdea972	-0.006795102
247	0xbd5e8a3e	-0.054331057
248	0x3dcc1f1f	0.099668734
249	0x3d045dd5	0.032316048
250	0x3d3ecf1a	0.046584226
251	0x3c5ce4fa	0.013482327
252	0x3d86a792	0.0657493
253	0x3d4d5160	0.050126433
254	0xbdea2604	-0.11433032
255	0xbc9fce7d	-0.019507641

fc3.bias f4 [4]
0	0x3cac281e	0.021015223
1	0xbd24c84e	-0.040230088
2	0xbdd0affe	-0.10189818
3	0xbba65804	-0.0050764102
