PPO_Music_RecSys/value_network.pt (torch, 75877 bytes, 9 tensors)

fc1.weight f4 [128, 5]
00000000: 4580 dcbd 2c2b b0b8 26f7 a03e 6104 4fbd
00000010: 1b68 ad3e 1fdc 84be 8b33 703e 29ae dfbe
00000020: d899 6bbb 39d8 d8be 9298 5dbd da8f c6be
00000030: af64 d2be 3dae b3bd 1888 acbd fb93 b9bd
00000040: ecb2 ca3d 14d2 91be d4c7 a4be 4217 b43e
00000050: 54f0 26be c379 ae3e e356 073c 1549 37be
00000060: 7763 e6bc 7187 d7bc 0cd6 9cbe afe2 adbe
00000070: 8cd7 1f3e b8b6 49be b512 6bbe a889 8d3d
00000080: e45a 4b3e aadc afbe 7330 5dbe 498f 86bd
00000090: c441 cd3e b933 253e 2c53 a53d 47ba 533e
000000a0: b70c fcbd 68a8 cd3e e19d 463e c44f 85be
000000b0: 370e 1e3e 5dbd 3cbe 7cfb 47bd 039b bd3e
000000c0: 0cc3 e93d 7013 ef3d 0687 eabc 0438 bdbe
000000d0: ad15 89be 4850 ae3e 8f97 eebd 303a 09bd
000000e0: 8f72 aabe a338 d8bd 124f d63e 2795 d3be
000000f0: 7122 103e 7476 30be 17ee 2abe 4f87 d33e
00000100: 2433 87be a403 b1be 7622 4a3e 239e 7a3c
00000110: 21af 75be 9ec3 1b3d 6e7e 083d 61bc abbe
00000120: fd2a 4ebe d4a0 2c3e b17b 79be 66ee 9bbe
00000130: 5342 c73e 8277 d83e 6cbc b2be 9736 b8be
00000140: a69d ab3c 9620 c1be 07fe 48bc 426f a2be
00000150: 5a22 2dbd a159 4bbe 797d a6bc d0ea 7abe
00000160: 6abb 11be 6a77 e8be aca8 8a3e b55b 96be
00000170: da11 913e e421 0a3e b686 61be 33b3 74bd
00000180: 6cb4 9fbe 5ae5 34be 150f c3be 0ba1 e93e
00000190: b701 65bd 1258 8dbd ef58 ba3e 23fc 673e
000001a0: 7391 48be 518e cfbe 4613 9b3e 82be 02be
000001b0: 53d7 d5be c6f1 823e 7909 ab3e 3e45 55be
000001c0: 4d87 d8be fadb f03d 8f66 30bd b256 c23e
000001d0: 90d4 d7be 1a54 183e 2375 fabd 3e76 3fbe
000001e0: 2170 a7bc f576 203d a1db f4be d915 cc3e
000001f0: 0993 8b3e 83b2 dabb c1cb 5fbe 2192 7fbe
00000200: feec 8e3e 3b12 9fbe 2f70 eabd 8f21 4bbe
00000210: c050 c7be 5fa2 85bd f2bb 8c3e 6c1f 033e
00000220: d522 abbe ee78 d63e 63a3 b1be cffa a1be
00000230: 1adc f6bd 7f63 4cbe 6e0b 103e 6df5 363e
00000240: 1ee2 ac3e 4cab f3be f627 873d 2146 32be
00000250: 6c7f d03c 31f8 623e 0d18 3d3d 95b0 c23e
00000260: c9ef b2bd 1e64 26be f622 903e ad00 cd3e
00000270: 8f60 20be e5dc 62be dc18 54be d840 abbe
00000280: 4c82 da3e 8b23 203e b6f7 39be ed32 dbbc
00000290: 65c0 553e e75c c0bd 1e67 a5bc 482a 813e
000002a0: fb63 be3e cf7d 88be 360d a23d 3b07 b7bd
000002b0: 8a28 91be 6a86 0fbe 5875 fd3e 743d a3bd
000002c0: 27d9 1dbe 199d b3bc 188b 1f3d e159 dbbe
000002d0: f26f e73d 1c49 cabe ca65 bebe 454a 873e
000002e0: 9869 c03e d28e bb3e 3ed0 c23e 990e b3be
000002f0: 0a3d 2bbe 2355 11be 04d4 883e 54c8 3bbd
00000300: 0bda 523e 2f94 fabe 9aac cf3d 7145 063e
00000310: 6ba1 af3e 7e25 a03d 2a6f e5bd 89a6 df3c
00000320: 362e aabe d279 dd3e d2ce d13c edd2 103e
00000330: 9e24 503d 1b78 4bbd 4cda 29be a4eb aa3b
00000340: 36ab b23e 71f4 08be 5e7f 433d e9a5 d43e
00000350: 07d1 2ebd e9e6 a33e 02e7 98be 596c b33d
00000360: 5582 943e 52f1 b23d 7dcc 53bd 5b3f 40be
00000370: 1b51 d8bd 6488 adbd 4229 d8be a2ae 16be
00000380: a5a5 32be a438 ad3e 8a17 07be eeda 9b3d
00000390: e156 4c3e 2688 f23e 5f58 bb3e 4d0e abbe
000003a0: 1329 8fbe 6b5b d83e ef15 873e 2f54 f13d
000003b0: 8dca b4be a522 05be 7813 c13e e355 86be
000003c0: 2314 4b3e 9042 a6bd 6453 b23e f1e1 aebe
000003d0: 09c7 813e 7e8f 5e3e e1f7 ae3e 917d 09be
000003e0: a193 c43e 8acc d9be 617a b0be ca69 883e
000003f0: e9c6 0f3e db23 c0be 6d15 2abe a22f b43e
-0.10766653 -8.4003754e-05 0.3143856 -0.050541285 0.3386849 -0.2594919 0.23457162 -0.4368756
-0.0035949852 -0.42352465 -0.05410058 -0.38781625 -0.4109244 -0.08773468 -0.08424395 -0.09061428
0.09897408 -0.2848059 -0.32183707 0.35173994 -0.16302615 0.34077272 0.0082604615 -0.17898972
-0.0281236 -0.0263097 -0.30632055 -0.33962008 0.15609568 -0.19698608 -0.22956355 0.069110215
0.19858891 -0.3434804 -0.21600513 -0.06570298 0.40089238 0.16133012 0.080725044 0.20676528
-0.12307113 0.40167546 0.19396164 -0.2603742 0.1543511 -0.18431611 -0.04882382 0.37032327
0.11414155 0.11673629 -0.028628837 -0.369568 -0.2677435 0.34045625 -0.11650001 -0.033502758
-0.33290526 -0.105576776 0.418572 -0.41324732 0.14075638 -0.17232686 -0.16692387 0.4131417
-0.26406205 -0.3457309 0.19739708 0.015296492 -0.23992588 0.038028352 0.033323698 -0.3354216
-0.20133586 0.16858226 -0.24363591 -0.3045532 0.3891779 0.42278677 -0.3490938 -0.3597915
0.020949196 -0.37720174 -0.012267596 -0.31725508 -0.04226909 -0.1985841 -0.020323502 -0.24503636
-0.14231649 -0.45403606 0.2708181 -0.29366842 0.28333932 0.13489491 -0.22024044 -0.05974121
-0.31192338 -0.17665616 -0.38097444 0.4563068 -0.05590984 -0.06901564 0.36395976 0.22654776
-0.19586734 -0.40538266 0.30288142 -0.12767985 -0.41765842 0.25575083 0.33405665 -0.20827195
-0.42290726 0.11760707 -0.043066557 0.37956768 -0.4215436 0.14875832 -0.12229373 -0.1869745
-0.02043921 0.039175946 -0.47823814 0.39860418 0.27260616 -0.0066741123 -0.2185507 -0.24958088
0.27915186 -0.31068596 -0.114471786 -0.1983702 -0.38928795 -0.065251105 0.2748714 0.12804955
-0.33425012 0.41889137 -0.34694967 -0.31636664 -0.120537 -0.1995983 0.1406686 0.1786706
0.33766264 -0.47591627 0.06599419 -0.17409565 0.025451384 0.2216499 0.046165515 0.38025346
-0.08737142 -0.16249129 0.28151673 0.40039578 -0.15661834 -0.22154577 -0.20712608 -0.3344791
0.42677534 0.15638559 -0.181609 -0.026757682 0.20874174 -0.0939272 -0.020190772 0.2522757
0.37185654 -0.26658484 0.07912676 -0.08936926 -0.2835124 -0.14016119 0.4950359 -0.07970706
-0.15414868 -0.021925496 0.03895101 -0.4284201 0.11300649 -0.39508903 -0.37187034 0.2642385
0.37580562 0.366324 0.380495 -0.34972075 -0.16722503 -0.14192633 0.26724255 -0.045845345
0.2059099 -0.4894118 0.10140343 0.13112427 0.3430284 0.07819651 -0.112028435 0.02730109
-0.3323838 0.43257004 0.025611315 0.14142962 0.05081617 -0.04967509 -0.1658718 0.005216079
0.3489625 -0.13374497 0.04772889 0.4153283 -0.042679813 0.32012108 -0.29863745 0.087609
0.29005685 0.087374344 -0.051708687 -0.18774168 -0.10562345 -0.0847328 -0.42218977 -0.14715055
-0.17446001 0.33832276 -0.13192573 0.07610117 0.19955017 0.47369498 0.3659086 -0.33409348
-0.27961025 0.42257246 0.26383922 0.11783635 -0.35310784 -0.13001497 0.37710166 -0.262374
0.198319 -0.081181645 0.34829247 -0.34156755 0.25347164 0.21734425 0.34173492 -0.13426806
0.38393882 -0.42538863 -0.34468368 0.2664321 0.14040722 -0.37527356 -0.16609736 0.3519259

fc1.bias f4 [128]
00000000: 1613 ad3c e5c7 ae3d 30c9 c23e 4b9d 96bd
00000010: 6ab1 1b3d 7c48 083f bc37 903d c9a1 e93e
00000020: 751e 9ebd c44f 4f3e cc47 163e dcd3 a9be
00000030: f2ea 2f3e d08f d4be b06e 98be f931 af3e
00000040: 5af7 d03d 4992 28be 700c fbbe ce55 22bd
00000050: be62 523e 5f23 27be 84e0 db3e 22c9 b2bd
00000060: 1b70 ae3e 704d 893d ec63 603e b5fd 1a3e
00000070: 4541 b13e a858 563c c0d0 8b3e f941 0f3e
00000080: cb53 a8be 5329 ea3e edb4 0a3e ef87 c6be
00000090: 0775 0fbd b8a8 9fbe 6ddd ca3e 6e57 b9be
000000a0: 1eb4 29bd 85cb 323d 9090 843e d800 3e3e
000000b0: 2d2d a73d 0be3 543e 6f14 b63c e32c 7d3e
000000c0: a1da 65be ae18 ad3e 51c6 b0bd 318e 333e
000000d0: 2f8c 883e 084d 86be 64cd d1be e6d9 2cbe
000000e0: 3a1d dabe 75cc d73e dfc9 a8be dbec a93d
000000f0: 7343 dd3c e3a2 f5be 8488 493e 8130 7e3e
00000100: e18b 893e 7c0b cf3e 159b 933d baea 78bd
00000110: 7c30 3a3e a273 9cbe f266 8c3e 52cb 11be
00000120: ca6b 9c39 a0b5 dc3e 923e ed3e 10e6 573a
00000130: 512b 4a3e 5715 41be c3fa bebe 322f 843d
00000140: f38f b93e 106a 2abe 6f15 2fbe 1bcb ab3e
00000150: c81f c13d 40c7 d2be 6068 8bbe 7a1c 80be
00000160: 187e b1be 0765 1bbe 0c78 debe 1548 ecbd
00000170: 70a7 a13e e586 febd 1c33 eebd eb92 9f3e
00000180: 52c2 13be 0d81 963e 8ccc 783e 2728 ffbe
00000190: e656 abbd f293 a8be 5999 143e a507 c5bb
000001a0: bfd5 43bd b1a7 eabd 6182 9a3e 32fd b6be
000001b0: 4a07 803e 927a 73be 1eb4 a03e 719e 34be
000001c0: dbd1 16bd 93ea 86be e929 b33e 0140 e1be
000001d0: 6b12 18be 8408 91bd 5c61 a03d 06e0 333e
000001e0: 6c49 323e 3c95 b0bd d6d7 c8bc 47dd cebe
000001f0: 4e06 cebe c237 0bbe 4ec7 18be 8370 ed3e
0.021127265 0.085342206 0.3804412 -0.0735422 0.038010992 0.532356 0.070418805 0.45631245
-0.07720653 0.20245272 0.14675826 -0.33169448 0.17179468 -0.4151597 -0.29771948 0.34217814
0.102034286 -0.16462053 -0.49032927 -0.03963261 0.2054548 -0.16322087 0.4294473 -0.08729769
0.34069905 0.06704223 0.21913117 0.15135844 0.3462011 0.013082661 0.273077 0.1399001
-0.3287643 0.45734653 0.1354558 -0.38775584 -0.035023715 -0.3118341 0.3962206 -0.36199516
-0.04143154 0.043651123 0.25891542 0.1855501 0.081629135 0.20789735 0.02222654 0.24724154
-0.22446682 0.33807892 -0.08631576 0.1753471 0.26669452 -0.26230645 -0.40977013 -0.16879997
-0.42600423 0.42148176 -0.32966515 0.0829713 0.027009701 -0.47975835 0.19680983 0.2482319
0.26864532 0.4043845 0.07207314 -0.060770728 0.18182558 -0.3055697 0.2742229 -0.14237717
0.00029834948 0.4310732 0.463368 0.0008235881 0.19743086 -0.18855797 -0.3730069 0.06454314
0.36242637 -0.16642022 -0.1709802 0.33553395 0.0942989 -0.4116764 -0.2722807 -0.25021726
-0.34666514 -0.15175258 -0.43450963 -0.11537186 0.31573057 -0.12428073 -0.11630842 0.31166777
-0.14429596 0.29395333 0.24296778 -0.4983532 -0.08366184 -0.32925373 0.14511622 -0.006012874
-0.047811266 -0.11457766 0.30177596 -0.35740048 0.2500556 -0.23777226 0.31387419 -0.17638566
-0.036821228 -0.2635084 0.34992912 -0.43994144 -0.14850776 -0.07081702 0.0783107 0.17565927
0.1741082 -0.08622214 -0.024516981 -0.40403196 -0.40239185 -0.13595489 -0.14919779 0.46374902

fc2.weight f4 [128, 128]
00000000: cbd4 bdbd ab5d 4dbd 2efc 01bd b9aa 183d
00000010: 8623 303c 5388 883d 2ad4 bfbb 6abd e5bd
00000020: 8641 59bc 9830 4d3d f6ad a5bd 7ed1 e33d
00000030: 8d0a 9ebd e64d 95bc 5233 d33b a029 4ebc
00000040: d0db 9fbb c934 f63d ffe6 7e3c 66af 303c
00000050: 77f1 d73c 61ca a0bd ae0f 0abd ef23 9a3c
00000060: 34cd 953d 699e 18bd b40a dd3c 4056 b83d
00000070: b37d ee3c b4b9 aa3d d8fb e7bd 0b35 4cbd
00000080: 8542 32bd 70ac d83a 5289 913d e5c6 513d
00000090: 0b9a 4f3d 8d60 b03d 39a3 a0ba fde0 0e3d
000000a0: a87b 49bd 6cb4 0abd bcd6 bfbc f2aa 2c3d
000000b0: 29ae 193d 7f4c 93bd dc35 f13b 8f86 95bc
000000c0: dfaa 5d3d fe47 b3bd 878a ae3d e9bb a0bd
000000d0: ff9f b23d 6787 593d c08a a5bc cbd7 8bbc
000000e0: 9bc0 143d a150 02be 8de5 543c 1314 de3d
000000f0: ec64 6fbd d38d ce3b 1894 55bc c8e7 58bd
00000100: f1dc a8bd b0a3 8fbd 07fd 06bd 020a a0bd
00000110: bd8f c2bc 3081 98bc 7208 5a3b 5acc a13d
00000120: ce01 a2bd e7bc 2f3d 673e 9dbc 60ab a03d
00000130: d8d5 07bd 9d05 213d 8fda 033d 78e5 bfbc
00000140: bce3 303d cd03 8c3d e683 84bd 38df 1d3d
00000150: 3d7d 8cbd 565c 873d cfb0 a2bc b397 8bbd
00000160: a9aa 693d 01c4 8fbc c4eb 3ebd ca5a 9b3d
00000170: 65a7 b13b a07b 9f3c a464 93bd 5ff0 04be
00000180: d967 803c 39bc 31bd 8146 723d 4412 803a
00000190: 1d62 84bd 8164 c43d 1bee 09bc 4733 ad3c
000001a0: 308d ab3d e566 e9bc 8c6b 2f3d c3f2 a63c
000001b0: 39a6 ba3b c535 1d3e 0d90 40ba 2117 84bc
000001c0: 02e0 6b3d 200f bcbc 1234 143d c69f f03d
000001d0: b9a2 073d a027 05bb 8c7b 743d 16ae 67bd
000001e0: 4ab6 a5bd cfd4 b53d fe7c 21bd d239 ba3c
000001f0: e410 d83d 0828 853c 0f5a 893d c1f1 35bc
00000200: 09e7 983c 7426 7fbd 5cf9 443d 428d 133d
00000210: 6173 59bd 2638 913d c2c1 e83d 59d5 f8bc
00000220: 9638 f93d d1eb 91bd fc6a 8cbc daec 93bd
00000230: dc0b 12bd 9538 ca3d ba0c 7d3d efaa 0bbd
00000240: 2fe1 e53a cab8 d03d 9877 86bd 416f c73d
00000250: a555 14bd 945f f13c b96a 6abd dc33 6a3d
00000260: 17cf 903d 5025 ea3c 737c 8bbd 13cf dabc
00000270: 8505 92bd 230a 973d 1244 47bb 05bc 3bbd
00000280: cbcf 47bd 09ff b2bd 0471 903c 3a23 be3d
00000290: 9bbe 54bd 12c2 c43c c6ca f3bc 8dcf 8a3d
000002a0: 1b94 093d fec4 c3bd eae4 d4bd 23a2 8c3d
000002b0: a354 5bbb fc69 3e3d 7098 1a3d 0f74 423d
000002c0: a412 5bbd bdbf f3bb 2e2c 7f3d a213 e1bb
000002d0: 8a60 99bd 26a1 b03d dadb 4c3d b0ad 0f3d
000002e0: 6c94 843d 4f4f 6abc 5b53 ddbc 7ba7 863c
000002f0: bf18 acbd e890 0dbd 93de e73c 12c5 ae3d
00000300: 5822 d63c 1e76 2abd 2731 a6bb fd61 0b3d
00000310: 365f 1dbd d720 4e3d d69a 843d c7ef efbc
00000320: 5096 2c3a 269c 23bc 24bc 643d e58c e3bd
00000330: c781 84bd 31c9 063d 3e80 533d ebb0 84bd
00000340: 792f c9bd a129 033d a1e0 a2bc a8a7 d33d
00000350: 5732 0abd 045e 78bb 2c64 373d 7a2f 10bc
00000360: 5b95 af3c 92c2 07bd 82cd 093d 0611 3bbd
00000370: b947 983c 280e 823d 8faf ce3c 9a9c b0ba
00000380: e8ca 763d eba6 61bd 7b5c d93a 2f28 8f3d
00000390: 265a 583d e4fb 32bd 6a7a 88bd 0836 5bbd
000003a0: 5a97 80bd 8e2a b43d 0f75 e7bd 6a96 54bd
000003b0: 2dd8 793d 9f3b 34bd 5456 d6bd 32f0 1e3c
000003c0: 162c 33bc f615 2e3d 85eb 80bd 9b33 203d
000003d0: 635e 2c3d 1ab6 6fbd b18e 29bd c2aa 3c3d
000003e0: dd8f 903d 8146 7cbc d120 a23d a18f 01bd
000003f0: ec6f 89bd b86c e33d 9182 e43c b9fa 32bc
-0.09269103 -0.050138157 -0.031734638 0.03727219 0.010750657 0.06666627 -0.0058541493 -0.112177685
-0.013260251 0.05009517 -0.08089821 0.11123942 -0.07716856 -0.018225621 0.006445327 -0.012583166
-0.0048784986 0.12021787 0.015558003 0.010784006 0.026360257 -0.07851101 -0.03370636 0.018815963
0.0731453 -0.037260447 0.026982643 0.09000826 0.029112672 0.08336201 -0.11327332 -0.049855273
-0.04352047 0.0016530883 0.0710627 0.05121507 0.050684016 0.086121656 -0.0012255675 0.034882534
-0.049190193 -0.03386347 -0.023417823 0.042155214 0.037519608 -0.07192325 0.007361157 -0.01825264
0.054118033 -0.08753966 0.08522516 -0.07848341 0.08721923 0.053107645 -0.020207763 -0.017070672
0.036316495 -0.1272607 0.012994182 0.108436726 -0.058445856 0.006303528 -0.013035797 -0.05295542
-0.08245266 -0.07013643 -0.03295615 -0.07814409 -0.02375018 -0.018616289 0.0033269194 0.07900305
-0.079105005 0.04290476 -0.019194795 0.07845187 -0.03316292 0.039311994 0.032190856 -0.023424849
0.043185934 0.068366624 -0.0647047 0.038542956 -0.06859825 0.066094086 -0.0198597 -0.06816044
0.05704752 -0.017549517 -0.046611562 0.07585676 0.0054215663 0.019468129 -0.0719693 -0.1298232
0.015674518 -0.043392394 0.05914927 0.0009771069 -0.06464026 0.09589482 -0.008418585 0.021142615
0.08376539 -0.028491447 0.042827174 0.02037943 0.005696085 0.15352543 -0.0007345684 -0.01612431
0.057586677 -0.02295643 0.03618247 0.11749224 0.03311417 -0.0020317808 0.059688136 -0.056562506
-0.080914095 0.08878481 -0.039425842 0.022732649 0.10550097 0.01625444 0.067066304 -0.011105002
0.018664854 -0.06229253 0.04808937 0.036023386 -0.05308855 0.070907876 0.11365081 -0.03037517
0.12168996 -0.071250565 -0.017140858 -0.0722291 -0.03565584 0.098740734 0.061779715 -0.03409856
0.0017538423 0.10191496 -0.065657794 0.09738017 -0.03621449 0.02946452 -0.057230685 0.057178363
0.07070749 0.028582245 -0.06810846 -0.026710069 -0.07129959 0.0737498 -0.0030405563 -0.045833606
-0.04878215 -0.0874005 0.017632015 0.09284063 -0.051939588 0.024018321 -0.029759776 0.067778684
0.03358851 -0.09559058 -0.103952244 0.068668626 -0.0033467195 0.046487793 0.037743032 0.047473963
-0.053484574 -0.0074386285 0.062297992 -0.0068687955 -0.074891165 0.086244866 0.050014354 0.03507775
0.06473622 -0.014301135 -0.027017286 0.016437283 -0.084031574 -0.03456202 0.028304374 0.08533682
0.026139423 -0.04161655 -0.0050717774 0.034028996 -0.03842088 0.050324287 0.06474845 -0.02928914
0.00065836776 -0.009985959 0.055843487 -0.11110858 -0.064700656 0.032906715 0.051635973 -0.06479057
-0.09823508 0.032022122 -0.019882502 0.10334712 -0.033739414 -0.0037897835 0.044773266 -0.008800382
0.021433523 -0.03314454 0.033643253 -0.04567053 0.018588888 0.06350356 0.025230197 -0.0013474405
0.0602521 -0.055090826 0.0016583347 0.06990086 0.052820347 -0.043697253 -0.06663974 -0.053518325
-0.06278868 0.08797179 -0.11301624 -0.05190126 0.060997177 -0.04400217 -0.104656845 0.009700822
-0.010935804 0.042501412 -0.06294922 0.039111715 0.0420822 -0.058523275 -0.041395847 0.046061285
0.0705869 -0.015397669 0.079164155 -0.031631116 -0.067108005 0.11104721 0.02789429 -0.010924035

fc2.bias f4 [128]
00000000: 38a3 e03c 4199 f93b 5069 1cbc 13f3 15bd
00000010: e28d c6bc 4da7 9e3d 5491 5e3d ecb9 3fbc
00000020: f346 61bd c64a 1ebd 35c9 2b3d 4e7b 093d
00000030: 9db8 d0bd 3702 a2bd cc35 363d 1726 eebc
00000040: da3a d9bd 10d6 87bd 435c babd 3ba2 c1bd
00000050: 1dcb 87bc 7afe 803c 193a 883c 2960 07be
00000060: d80d 45bc fc2c 8cbd 906d 4bbd 64ba c1bd
00000070: 558f b4bd 2ac2 52bc f65b edbd 525f 84bc
00000080: 63b8 503d 6b99 673d 4b2f a1bd df78 94bd
00000090: e879 c3bd 9422 41ba d7f2 5f3c 7f5b e7bc
000000a0: e32c c0bd 39ce d4bc 692e f73c 41fb 67bd
000000b0: 1509 0f3d ab5a 6fbd a9bd fc3c f366 e8bc
000000c0: 8595 98bd a350 8dbd 8b4b 143d 5bae 8fbd
000000d0: 794e b6bd 6c34 603d 1958 a83b e5bc 84bc
000000e0: 2335 26bd 4ef8 54bd cd9b db3c b36d 14bd
000000f0: adcd 9cbc 82f6 88bc c872 87bd be9a 8abd
00000100: d828 033d adc5 c9bd 5112 9abd 6d90 5a3d
00000110: 9049 8c3c 722e 59bd d443 f33c 1cc9 99bd
00000120: ba3a b0bc 514e 0e3d b7fc f5bb f7f0 1cbc
00000130: 7cac 253d 8279 e03c 8504 27bd bf7a 193d
00000140: 8a17 8dbd d590 2bbd 4954 a2bc eb3c f0bd
00000150: 8a6e 0f3c fe1f aebd d21c 3b3d 673e 3ebd
00000160: 9d5a 913c 851f 97bc cf9c ff3c b504 b73c
00000170: 866e ef3c 4124 8bbd 3113 a7bd 516d 86bd
00000180: 1171 79bd 36ee 673d 47e9 93bd 110b 5abd
00000190: c8ec b9bd 8fb4 d73c b17a abbc 4518 a3bd
000001a0: 8f1d babd 641d 1dbd 9c01 b1bd d8a2 e3bc
000001b0: ea30 afbd c854 b2bb 5c77 2cbd 624b adbd
000001c0: ac74 ed3c 3615 a93b 84cf d5b9 14f6 87bd
000001d0: 5da4 bc3c a5f2 5bbd c922 983c 8f36 e5bd
000001e0: f51e abbc dc8f 523c 82de 1f3d 29fb ab3b
000001f0: 0f30 18bd a73e ccbd 692d 8a3c f00a 92bd
0.027421579 0.0076171462 -0.009546593 -0.036608767 -0.024237577 0.07746754 0.054337814 -0.011702042
-0.054999303 -0.03864553 0.041939933 0.03356486 -0.10191462 -0.07910579 0.0444849 -0.029070897
-0.10606928 -0.06632626 -0.09099629 -0.09454771 -0.016576344 0.015746344 0.016629266 -0.13220276
-0.012027226 -0.068445176 -0.049665034 -0.09459379 -0.08816401 -0.012863675 -0.11589806 -0.016158734
0.050957095 0.056542795 -0.078703485 -0.07249617 -0.09544736 -0.0007367518 0.013668737 -0.02824187
-0.093835615 -0.02597724 0.030173497 -0.0566361 0.03492077 -0.058436077 0.030852156 -0.028369403
-0.074503936 -0.06900146 0.036204856 -0.070156775 -0.08901686 0.054737493 0.005137455 -0.016203353
-0.04057802 -0.051994614 0.02680769 -0.03623743 -0.019141043 -0.016719107 -0.0661369 -0.06767796
0.032021374 -0.09852157 -0.07523025 0.05336039 0.017124921 -0.05302281 0.029695429 -0.07509062
-0.021512378 0.034742657 -0.0075069326 -0.009578935 0.040447697 0.02740169 -0.040775795 0.037470575
-0.06889255 -0.04188617 -0.01981558 -0.11730369 0.008754382 -0.08502196 0.045681782 -0.04644623
0.017743403 -0.018447647 0.031202702 0.022341112 0.029227506 -0.06794024 -0.08157957 -0.06563819
-0.060898844 0.05662366 -0.072222285 -0.05323321 -0.090783656 0.026331214 -0.020932527 -0.079636134
-0.09087669 -0.038358107 -0.08642885 -0.02778761 -0.085542515 -0.0054422356 -0.042106017 -0.08461644
0.028986298 0.0051599992 -0.00040781137 -0.066387326 0.023027593 -0.0536982 0.018571274 -0.11192047
-0.020888785 0.012851682 0.03903056 0.0052484465 -0.037155207 -0.099728875 0.016867356 -0.071309924

fc3.weight f4 [1, 128]
00000000: 5133 e3bd c2b4 5b3d ac06 3fbc 487d 10bd
00000010: 0d4e 193e 111a e9bd 3dd3 df3d 9037 04be
00000020: 6313 a9bd 8727 cbbd 5fc3 d83d 24ed 0e3e
00000030: d1f7 523e d660 5a3d c962 e0bd 9345 2b3e
00000040: 8106 4ebd 4dac 8bbd b671 6c3d 7fc2 063e
00000050: 81fa 273e e521 f7bd f455 253e c04a d03d
00000060: d3de 9cbd a97f a0bd 9f83 3d3c f3b7 ea3d
00000070: 8061 9f3d 8852 af3d c32f df3d bbc4 063e
00000080: 1a2e 2dbd 3874 31bd 9edc e93d 4e5f ccbd
00000090: 28ac 4abd fa81 093e 9648 bcbd fce9 873d
000000a0: cdda 333d ac44 af3d d40e 963d 7e3f 9fbd
000000b0: ade9 ae3d 6f3e 19be 222e bf3d 36b1 de3d
000000c0: 195a b5bd 0615 f0bd e823 21be 7a41 f2bb
000000d0: 2181 07be 055c 8ebd 80be f7bd 22dd cf3d
000000e0: b2d2 bdbd fb86 d5bd f63f dfbd c243 c03d
000000f0: afbe 86bd af00 99bd af8b f53c ddcb 72bd
00000100: dc33 34bd faca af3d 2753 c83d 447a ae3d
00000110: 7557 cf3d 3fc2 84bd 1096 963d 1a48 a53d
00000120: cc77 d93d bae4 bb3d 3d5b 00be 07ed 99bd
00000130: 2d18 00be df8e 07be a399 cf3d 668a f5bd
00000140: 5000 acbd 0430 d5bd 7a3b a83c e421 debd
00000150: 183c db3d 2f28 203d 6a8c 833d 6d84 023e
00000160: c06d debd cd26 05be caae 9a3d 6f4d e43d
00000170: f4e0 d93d a982 e4bd 3016 ad3d b99c c63d
00000180: 8888 0fbe d2cf debd 841a 04be 946d a5bd
00000190: 475f bfbd 6ffb 85bd 55f7 3bbd 07e0 5e3d
000001a0: ba93 5e3d 57f0 bcbd c759 153e 6c94 b4bd
000001b0: 6b6f 7bbd 9ebe 62bd 50c5 083e f409 93bd
000001c0: a702 e53d 3b4d 33bd cb8d 883d ed7b 89bd
000001d0: 0c3f 1b3e 6461 a53d 348b 9ebd d473 133d
000001e0: 0ec9 b2bd 3328 63bd 56ac 193d 34df a0bd
000001f0: 45ee d1bd 33b4 2d3d e9b2 f2bd abda 4bbd
-0.11093772 0.05363918 -0.011659306 -0.035275728 0.1497118 -0.11381925 0.109289624 -0.1291182
-0.08255651 -0.099196486 0.10584139 0.1395765 0.20602347 0.053315006 -0.10956342 0.16725759
-0.05029917 -0.06819973 0.05772563 0.13160132 0.16404153 -0.12067012 0.1614607 0.101705074
-0.07659688 -0.07836849 0.011567025 0.11460867 0.077822685 0.085606635 0.10897782 0.13160984
-0.042280294 -0.043323725 0.114190325 -0.099791154 -0.049480587 0.13428488 -0.09193532 0.06636426
0.043909837 0.0855802 0.07327047 -0.07775782 0.08540664 -0.14965223 0.09334971 0.10873644
-0.088550754 -0.1172276 -0.15736353 -0.0073930593 -0.13232853 -0.06951145 -0.12096882 0.101495996
-0.092687026 -0.10426136 -0.109008715 0.09387924 -0.06579339 -0.074708335 0.029973833 -0.05927645
-0.04399477 0.085836366 0.09781485 0.08519414 0.10124103 -0.06482362 0.07352841 0.08070393
0.106185526 0.091744855 -0.12534805 -0.075159125 -0.12509222 -0.13238095 0.10136726 -0.11989288
-0.08398497 -0.10409549 0.020536173 -0.10846308 0.10704821 0.039100822 0.06423266 0.12745829
-0.10860777 -0.13003083 0.075528696 0.11147582 0.106386095 -0.11157734 0.084514976 0.09697861
-0.14016926 -0.10879482 -0.1290074 -0.08077541 -0.093443446 -0.06542098 -0.04589017 0.054412868
0.0543401 -0.09225529 0.14585029 -0.08817372 -0.061385553 -0.055357568 0.13356519 -0.07179633
0.111821465 -0.043774825 0.0666767 -0.0671309 0.15160769 0.080752164 -0.07741395 0.035999134
-0.087297544 -0.05545826 0.037517868 -0.078550726 -0.102505244 0.04240818 -0.11850531 -0.049769085

layer_norm1.weight f4 [128]
00000000: 2217 7a3f ffaa 833f ac46 813f ef12 873f
00000010: 532d 7e3f 1079 863f 04ff 763f 37d9 823f
00000020: 72c8 823f 464f 7a3f ec20 7d3f 16c9 7f3f
00000030: 10a1 7a3f 8a4b 863f 32ce 883f 7d68 753f
00000040: 5b47 793f 7c05 803f 0a78 843f 8e9a 7a3f
00000050: a613 7c3f 7c82 863f af8b 843f 87eb 833f
00000060: ee33 863f 3afc 833f ea8d 6c3f f232 803f
00000070: 2e64 833f dcab 7f3f 712f 7b3f 5242 813f
00000080: 5dca 803f 0ac2 7b3f 2189 7d3f 86e1 853f
00000090: 7ff6 7b3f 1ed4 863f 03b7 843f afde 8b3f
000000a0: e2df 813f 7af6 7c3f bbe1 7f3f 009f 7f3f
000000b0: 216f 803f 48a2 7e3f 7b81 7c3f 82e2 793f
000000c0: 1284 7d3f 8a7f 793f a298 7e3f 514d 763f
000000d0: ad12 853f c27c 873f 12db 8b3f 50b6 823f
000000e0: 948a 813f 9cd3 773f 9377 7f3f ff44 823f
000000f0: 9f98 803f b66f 863f 00af 7a3f 4094 773f
00000100: eb18 803f b041 813f cb2a 7d3f 132a 7e3f
00000110: 79fa 753f 8dc0 7a3f 35d6 6c3f 7baf 793f
00000120: 2a9d 763f 2694 823f 1026 7d3f ef42 793f
00000130: e8f6 7e3f 02c3 833f e375 813f ae1f 703f
00000140: 39a9 813f e0df 7d3f 1b02 8a3f 954b 803f
00000150: 192a 7c3f 5053 8c3f 36d5 7c3f f64b 843f
00000160: 49ae 7c3f f525 7e3f 352c 883f 87e5 843f
00000170: d58b 7d3f a216 7c3f 8db7 823f 3c95 773f
00000180: e6fb 7a3f 51a7 723f 05b3 7e3f 47d3 893f
00000190: 034a 783f b369 823f ac4e 7b3f 4a48 823f
000001a0: 3f5d 833f c9f8 823f 0115 753f 216d 8d3f
000001b0: a50a 7f3f e37c 843f f8f9 7c3f ceac 853f
000001c0: 051f 813f 93bb 7e3f edb9 783f 3e41 8b3f
000001d0: a448 833f a1a1 803f 84e8 7f3f 3c35 703f
000001e0: 9781 733f e761 853f 223a 803f 1bc1 853f
000001f0: d2d3 813f 56ae 8a3f 63f5 843f cdd5 7f3f
0.9769155 1.0286559 1.0099692 1.0552653 0.9928791 1.0505695 0.9648287 1.0222539
1.0217421 0.9777721 0.9887836 0.9991621 0.9790201 1.0491803 1.0687926 0.9586256
0.97374505 1.0001674 1.0349133 0.9789208 0.9846748 1.0508571 1.0355128 1.0306252
1.0484598 1.0311348 0.92404044 1.0015547 1.0264947 0.9987161 0.98119265 1.0098364
1.0061756 0.98342955 0.9903737 1.0459449 0.98423 1.0533483 1.0368351 1.0927333
1.0146449 0.98813593 0.9995381 0.9985199 1.0033914 0.9946637 0.9863507 0.9761125
0.9902965 0.97460234 0.9945165 0.96211725 1.0396324 1.0584948 1.092623 1.0211887
1.0120416 0.96807265 0.9979183 1.0177306 1.0046576 1.0502841 0.9792328 0.96710587
1.0007604 1.0098171 0.9889342 0.9928295 0.96085316 0.9795006 0.92514354 0.97533387
0.96333563 1.0201461 0.98886204 0.9736776 0.995955 1.0293887 1.0114101 0.9379834
1.0129768 0.9916973 1.0781893 1.0023066 0.98501736 1.0962925 0.98762834 1.0335681
0.9870344 0.9927667 1.0638491 1.0382546 0.9904149 0.98472035 1.0212265 0.9671209
0.98040617 0.94786555 0.9949191 1.0767602 0.9698793 1.0188507 0.9816692 1.0178311
1.0262831 1.0232173 0.95735174 1.1048928 0.9962562 1.0350612 0.9881892 1.0443361
1.0087591 0.99504966 0.971587 1.0879285 1.0256543 1.0049325 0.99964166 0.9383123
0.95119613 1.0420502 1.0017741 1.0449556 1.0142767 1.0834453 1.0387386 0.9993561

layer_norm1.bias f4 [128]
00000000: 74c2 babc 2443 023d ec91 17bc 4d2d debd
00000010: d058 beb9 ff98 cd3d 3abc 0a3c 7bb5 a13b
00000020: b751 2139 02a7 ad3c 3d69 973c 22ad 053d
00000030: 8327 7e3d e29e 1dbd 858b a6bd 2fa3 2dbd
00000040: 6f3c 00bc 782b 4abd f96a 58bd 5909 183d
00000050: dbd3 d23a c970 0cbd 44cd 663d 7041 783b
00000060: 2332 b53d 4432 c73b 9ed5 86bc 41e2 a1bc
00000070: 4df6 543d f25f 353d 5c8c f43c fb3d 02bc
00000080: 1473 713c c352 8b3b 04a8 89bc f2ec 13bd
00000090: 91dc c8ba 2ec6 87bc f7ed e03c d817 b5bd
000000a0: 838e db3b 9e67 65bc 5c86 91bd 34c7 853c
000000b0: 15da d0bc 7a78 ec3c 4592 ac3b 34d6 353c
000000c0: 7a9a 2f3d 0f1f 1abc 6e1c 04bd 86cc 14bd
000000d0: 67c4 50bc 5a82 dcbd 9717 93bd 7277 05bc
000000e0: 204b cabb c577 923c bb3c 8339 5a4f 13bd
000000f0: ec8f f1bc b433 2cbd bc3a e83c ed32 ebbc
00000100: b5fd f33a f68f 5e3d b4cb 83bc 9677 b33c
00000110: 8851 fcbb db8e 163d 11be 96bc d282 6c3c
00000120: 0621 7b3b b405 5b3b 4e0e 29bb 7a3a 5f3d
00000130: bdc1 6d3d e449 153c 6168 4a3d e63c 5dbd
00000140: 6298 12bd 7f12 6cbc 3feb c2bd a1e0 2e3d
00000150: 5b38 e5bc 3361 c2bd bf59 173d 9007 56bd
00000160: f5af 3cbc 4cd0 8b3d c07e 64bd 0b22 e3bd
00000170: 72cb 17bd 10c7 0ebc 62d9 81bb f05e 4ebd
00000180: 97b1 d0bb 425c 433d d0e1 a73c ffc9 86bd
00000190: 87ac 863d f692 dbbc 1a08 eabc 392a 4ebc
000001a0: 5936 9cbc ec6d 45bd 3ff6 863c d95d cbbd
000001b0: a6d3 6e3d f269 7abd 27d6 83bc b265 5fbd
000001c0: bdce bb3b 65ac caba 5b91 ef3c 3303 83bd
000001d0: 4fa7 afbd 3ecc 89bc c28a f5bc ec56 09bc
000001e0: 61ae afbc 09b9 ecbc 2b47 2a3c 6194 f0bc
000001f0: 7959 b1bc 0b84 a1bd 8911 fcbb 66fc e03c
-0.0227978 0.03180231 -0.009251099 -0.10848484 -0.00036305794 0.10038947 0.008467728 0.0049349642
0.00015384598 0.0211978 0.018482799 0.032635815 0.0620494 -0.0384816 -0.0813208 -0.042391952
-0.0078269085 -0.04935786 -0.052836392 0.03711829 0.0016084866 -0.034287248 0.0563481 0.00378808
0.088474534 0.00607899 -0.016459282 -0.019761207 0.051992703 0.044280954 0.029852085 -0.007949348
0.014736909 0.0042518093 -0.016803749 -0.03611464 -0.0015324523 -0.016573992 0.02745722 -0.088424385
0.0067003383 -0.014001755 -0.07105705 0.016330339 -0.025494615 0.028866041 0.00526646 0.011098433
0.04287193 -0.009406819 -0.032253675 -0.03632786 -0.0127421385 -0.1076705 -0.07182234 -0.008146154
-0.0061735064 0.017879376 0.00025031515 -0.035964347 -0.029487573 -0.042041495 0.02834832 -0.028710807
0.0018615039 0.05433651 -0.016088344 0.021907609 -0.007700149 0.03675733 -0.018401178 0.014435487
0.0038319244 0.0033420147 -0.002579588 0.054499127 0.05804609 0.009111855 0.04941595 -0.054013155
-0.035789855 -0.014408707 -0.09517526 0.04269469 -0.027980974 -0.094911955 0.036950823 -0.052253306
-0.011516561 0.06826839 -0.05578494 -0.110904776 -0.037059255 -0.008714452 -0.0039626816 -0.05038351
-0.0063688266 0.047695406 0.020493418 -0.065814964 0.06575876 -0.026803475 -0.028568316 -0.012583309
-0.019068884 -0.048200533 0.016474841 -0.099300094 0.058307312 -0.061136194 -0.016093327 -0.054540344
0.0057314322 -0.0015462755 0.029244116 -0.063970946 -0.085768335 -0.016821023 -0.029973391 -0.00838254
-0.021445455 -0.028896825 0.010392944 -0.029367628 -0.02164911 -0.07886513 -0.00769252 0.027464103

layer_norm2.weight f4 [128]
00000000: 4d0b 8c3f 18cf 843f 17cf 803f ba90 803f
00000010: 3cd3 893f 187c 873f f5b7 883f 7ce6 853f
00000020: 1876 843f 9760 863f 9ee1 823f 26bf 8b3f
00000030: 906a 913f 7389 883f 6cef 893f 8d76 8c3f
00000040: 1436 873f 944b 813f a76a 803f f3f6 863f
00000050: b940 8b3f d428 893f b790 8d3f 1085 883f
00000060: 7ac5 853f 1962 853f 38dc 823f cdc7 893f
00000070: 5d0f 8b3f ff88 853f 56df 873f d653 8b3f
00000080: a041 823f fc5e 843f c47f 883f 338e 863f
00000090: 42a2 833f fc88 883f 524a 843f f443 823f
000000a0: ffd0 823f 1fc4 853f 728d 853f b409 803f
000000b0: 615e 853f 7463 943f 6add 863f ee90 843f
000000c0: 7f13 8b3f 267b 873f cd7c 893f dfe2 7c3f
000000d0: eefe 863f 3455 8b3f 7a31 853f 6bc0 8a3f
000000e0: bf35 893f e1ed 8a3f bb3f 843f 0376 8b3f
000000f0: 9825 893f 72b6 873f 7b78 843f dcaf 843f
00000100: a99b 803f bd9a 823f a2a1 843f 5d63 843f
00000110: 6a3a 833f 36b6 843f 9f4d 893f 6145 833f
00000120: 7d2c 853f 3ef9 863f 615e 873f 0b67 883f
00000130: 57bc 883f e0ba 873f fd44 823f 37ff 8b3f
00000140: 2efa 813f b784 873f ef07 823f 0a4c 863f
00000150: 3e69 853f ada6 813f 27cd 843f 7128 893f
00000160: 05b2 8d3f 9f37 873f d2bf 893f 81d5 833f
00000170: c990 853f 6145 873f d529 8a3f 1da7 853f
00000180: e2f5 8e3f 0e16 873f 8966 8b3f a061 823f
00000190: 1a85 843f 8fa6 823f e93d 853f d2d3 7c3f
000001a0: fce1 873f 494a 843f ee47 893f 0a5c 883f
000001b0: 9bab 813f aa4d 813f bdd0 863f 4038 813f
000001c0: 186a 873f dd13 863f e7fb 843f 6809 843f
000001d0: 8003 8a3f 82f9 853f 8dd8 843f 15da 863f
000001e0: 6d7a 8a3f 7039 7d3f e682 823f 4fbb 8a3f
000001f0: 4dfe 853f 3501 863f 9b15 853f 9335 813f
1.0940949 1.03757 1.0063199 1.0044167 1.0767589 1.0584745 1.0681139 1.0460963
1.0348539 1.0498227 1.0225103 1.0917709 1.1360645 1.0666946 1.0776191 1.0973679
1.0563378 1.010119 1.0032548 1.0544113 1.0879127 1.0715585 1.1059788 1.0665607
1.045089 1.0420562 1.0223455 1.0764099 1.0864064 1.0432433 1.0615032 1.088496
1.0176277 1.0341487 1.0663991 1.0512146 1.0283892 1.0666804 1.0335181 1.0176988
1.022003 1.0450476 1.0433791 1.0002961 1.0419427 1.1592851 1.053632 1.0356729
1.0865325 1.0584457 1.0741211 0.9878368 1.0546548 1.0885377 1.0405724 1.0839971
1.0719527 1.0853845 1.0331949 1.0895389 1.0714598 1.0602553 1.0349268 1.0366168
1.0047504 1.0203472 1.0361826 1.0342823 1.0252202 1.0368106 1.0726813 1.0255548
1.0404202 1.0544813 1.0575677 1.0656446 1.0682477 1.0603905 1.0177304 1.093726
1.0154474 1.0587376 1.0158671 1.0491955 1.0422742 1.012899 1.0375108 1.0715467
1.1069952 1.0563849 1.0761664 1.0299531 1.043481 1.0568048 1.0794016 1.0441624
1.1168787 1.0553606 1.0890666 1.0186043 1.0353119 1.020708 1.0409518 0.9876071
1.061584 1.033517 1.0725076 1.0653088 1.0130495 1.0101826 1.0532452 1.0095291
1.0579252 1.0474812 1.0389374 1.031537 1.0782318 1.0466769 1.0378586 1.0535303
1.0818611 0.9891577 1.0196197 1.0838412 1.0468231 1.0469118 1.0397218 1.0094475

layer_norm2.bias f4 [128]
00000000: d6d8 ba3c f8dc 93bc 9c30 903c 01a9 343c
00000010: 18a3 9dbc 7457 973c 5336 95bc 123c 9a3c
00000020: 6ad6 723c d8b7 993c 79e9 91bc 2465 93bc
00000030: 84d3 aebc a1bf ebbc 1476 9c3c 0e64 abbc
00000040: 445b da3c aa48 8d3c bea4 93bc 39c8 8cbc
00000050: 60b4 9fbc ebf2 943c 712a aabc ddde 86bc
00000060: 58a5 b93c 1502 4a3c 0696 81bc 3b3d a9bc
00000070: db91 a0bc 7740 9bbc 24d1 a5bc 4073 83bc
00000080: 7302 ab3c 147a 653c 8a1b 9cbc 0390 ac3c
00000090: 70ae ab3c eff6 88bc f9d7 9f3c b838 78bc
000000a0: 831f bbbc ea57 88bc b68f a9bc 6fae b43c
000000b0: 848e 82bc e92f a03c 6481 8cbc 0587 afbc
000000c0: 03d4 ca3c d2d4 8f3c 907c a93c bcb8 923b
000000d0: cf4a 7f3c 082d aebb 30aa 8b3c 50b9 a7bc
000000e0: 963a 9e3c 7ad6 d53c 8e9e 873c c1ab a0bc
000000f0: 8ee4 2a3c a723 733c 01e8 9ebc 4833 9e3c
00000100: a114 903c 3502 aebc 8112 a4bc 7869 8dbc
00000110: 6d49 94bc 634a 743c 9167 adbc 7dd9 88bc
00000120: 353a b1bc c585 80bc 0c33 9d3c 91ec 9d3c
00000130: 130a 893c 2cc5 863c 157c a3bc 4b18 a33c
00000140: 6e66 a43c c086 993c 6cee c1bc 5991 a33c
00000150: 4a03 88bc 529e e9bc f366 babc 22e3 84bc
00000160: 8fdd 8c3c 4470 a33c b233 babc 5da3 9ebc
00000170: 0a1d a7bc 8176 9e3c 9a66 bebc 418c abbc
00000180: a0ba a63c 20dd 8c3c 82d9 903c c106 923c
00000190: bcec 9f3c cfa6 963c 0669 b23c e80d a0bc
000001a0: 6341 00bc 3023 933c 9f76 9dbc eb5a a93c
000001b0: 4862 943c 7a5c ab3c 911c abbc 4e2b 843c
000001c0: 6552 96bc 3abb aa3c 3a97 95bc 60ff 813c
000001d0: 706d a3bc 09b6 8bbc 193a a83c 222a 56bc
000001e0: 30e2 863c 6ee4 913c e789 80bc 02c3 8d3c
000001f0: d9c1 893c 7ff3 dbbc dbd0 9b3c f67b a23c
0.022808474 -0.018049702 0.017601304 0.011026622 -0.019242808 0.018474318 -0.01821438 0.018827472
0.014821628 0.018764421 -0.017811524 -0.017992564 -0.021341093 -0.0287779 0.019099273 -0.020921733
0.026654847 0.017246563 -0.018022891 -0.017185317 -0.01949519 0.018182239 -0.02077219 -0.016463691
0.02266185 0.012329598 -0.015818607 -0.02065908 -0.0196008 -0.018951638 -0.020241328 -0.016046166
0.020875191 0.0140061565 -0.0190561 0.021064764 0.020957202 -0.01671931 0.019512163 -0.015150242
-0.022842174 -0.016643483 -0.02069841 0.022055833 -0.015937097 0.019554095 -0.017151542 -0.021426687
0.024759298 0.017557535 0.020689279 0.0044775885 0.015581801 -0.0053154267 0.017048925 -0.020474106
0.019315045 0.026103247 0.016555097 -0.019613149 0.010430468 0.014840043 -0.019397737 0.019311562
0.017587962 -0.021241287 -0.020028355 -0.017262205 -0.018101418 0.014910313 -0.021167548 -0.016705269
-0.0216342 -0.015688786 0.01918938 0.019277843 0.016728437 0.01645144 -0.019956628 0.019909045
0.020068374 0.018741012 -0.023673259 0.019966768 -0.01660313 -0.028517876 -0.022754168 -0.016221587
0.017195491 0.019950993 -0.022729728 -0.019365007 -0.02039959 0.019343616 -0.023242284 -0.020940902
0.020352662 0.017195284 0.01768184 0.017825486 0.019522063 0.018390087 0.021778595 -0.019537881
-0.007828089 0.017961115 -0.019221602 0.020673236 0.01811327 0.02091812 -0.020887645 0.01613393
-0.018349836 0.02084123 -0.018260587 0.015868843 -0.019949645 -0.017054575 0.020535516 -0.013071569
0.016465276 0.01780912 -0.015690757 0.017304901 0.016816067 -0.026849506 0.019020488 0.0198345
